ConvNetModel.pth (torch, 127388 bytes, 22 tensors)

layer1.0.weight f4 [16, 3, 3, 3]
00000000: f09f 83be 3960 99bd e010 a2bd 9f5c c7bd
00000010: 20ee 29be 57ee fa3d d4cc 2abe 3c3c 243d
00000020: 826b 163e 0eef 08be 0b51 913d f5b7 fa3c
00000030: 87ca 6a3d 964f ef3d f678 4ebd dc59 763d
00000040: b04a 4ebd cae5 ff3d 26be 44be 17ed c23c
00000050: 811c 3a3c 124c 14be 9dc3 01be cc1c 5f3d
00000060: 5ea6 1a3e f0a0 cf3d 9538 ac3c 368f b03c
00000070: ffa5 013e 6477 08be 9557 a13d 6f99 a5bd
00000080: c9a9 a53d 3e0e 28bd 96fa edbb 245e 953c
00000090: 9231 6b3e c170 463d 9fdc 663e d171 88bd
000000a0: a657 843c 2ac7 2fbe 21b1 073e 7087 dd3d
000000b0: 0ea8 8fbd 33a7 633e 64a2 4c3d b43f 14be
000000c0: 8ace 863e 7b4c fd3d d88e 883d c106 973e
000000d0: cf3d b23d c97a 433d 5433 503e 663c 8f3c
000000e0: 9dd1 b0bd bd7c 44bd 393a 243d 09fa 3f3d
000000f0: 3e2e ca3c fa18 223e d1da e33d 8b48 51be
00000100: f336 c3bd 303f 89bd d462 863d fa22 b7bd
00000110: 0f38 bfbd 1306 d5bd 490e bdbd b3d9 b6bd
00000120: 4e72 53be e727 383e 331d 103e bf99 cdbd
00000130: 5359 c8bd 4d71 423d 5585 973d 0a0e 10be
00000140: 46ee 86bd e827 1f3d c06c c4bd 9479 213d
00000150: 3684 37be 9d02 5e3e 1935 2d3e 8203 67be
00000160: b415 a2bd 44ad 023e bcc7 30bd e17a 5f3d
00000170: c466 02be 392d 19be ac24 cd3d 643d e8bd
00000180: 6512 c9bd f875 b73d 03c5 063e 266d 48bd
00000190: 27fa 953d 161c 143e e168 96bd 53cb b2bc
000001a0: 4b49 593e 2008 003e b15b e13d dc12 a1bc
000001b0: 269d 26be 3cc1 05be 8aaa e23d 4e8e a8bd
000001c0: 7e9a 2cbc 6c57 833d b86c 223e 3a07 563e
000001d0: 5191 963d d932 d1bd 3300 c53d ed72 e93c
000001e0: e468 73be 0bf9 3b3d 8d9e 573e 6d94 61be
000001f0: a8c2 8dbd 4447 893d b966 1fbe 901d efbd
00000200: 9837 643e 9d0d 9ebd c3c6 0c3e e38d a23d
00000210: cc67 903c a0e7 ebbd 22f1 8b3c 5add 903d
00000220: 90ea ba3c 0274 b1bd c862 e3bc 79fe 503d
00000230: a2ab 67be 9e3a ac3d d610 2dbe f554 febd
00000240: 450c 363e 31da b1bd 3302 833d 647b 923e
00000250: 5375 e73d d265 4c3b d7b3 b13d 56fe 3e3e
00000260: 5b46 023e 0a51 153e 30d2 0fbe 7014 9b3d
00000270: e04a 743d a6cf f3bc 8c33 2f3e 258b 193e
00000280: b697 7d3d 5612 673d c9c8 173e 0d2f 2cbd
00000290: 615f 45be 658a 03be 9229 4cbe 3007 57be
000002a0: 01ea d63d 1efe ccbb 4897 94bd 92d8 91bd
000002b0: afad 6f3e c038 473e e6af 143e 047c 4a3e
000002c0: b912 abbd 5368 92bd 4814 d9bd a9b0 103d
000002d0: dcd1 3abe f32c f33d a441 ebbc 4f32 883d
000002e0: eaf5 34be 9e84 b0bd 98bc 78bc 21d4 01be
000002f0: ed3e 153e 2978 0cbe 0a60 7b3c 4b96 22be
00000300: 1ea8 43bd 604b a9bd 4ed7 8a3d edd5 053e
00000310: 151b f83c 8424 a3bc 926a 5bbd e75d 113e
00000320: 32cb 25bd 0d59 1c3e 7904 b6bd bfbd 303e
00000330: 4d65 623e 5d85 153e 235a 083e 09b7 1f3c
00000340: 5b34 25be 1fc6 55bd 372b fe3c ae44 d3bd
00000350: 6a3b 12bc 9820 cc3d 630e 60be 3cd4 53be
00000360: 865a dbbd 62bb 793d 597e a93c 7bb9 ac3d
00000370: 0904 df3c 8d4b 24bd 6007 3f3d 47e9 3a3e
00000380: 7fab 30bd 4d34 6c3b 46a5 6dbd d9ce 073e
00000390: 7845 8dbe cef8 69be 6f0d 403d c63f a0be
000003a0: d24c 74be 2f98 8a3d 0fc5 d9bc bcf6 72be
000003b0: e6a4 053e 313e b7bd 7f85 0e3e 20c2 a2bd
000003c0: e197 88be 46b8 2bbe c735 47bc 3c72 6cbe
000003d0: dcff ddbd 761f 18be 5ae8 d6bd 8b80 d7bd
000003e0: ea0c 78bd fd33 85be 9efd 4b3c 5abe 29be
000003f0: e117 2d3e 9a76 493e 036b d5bc ba1e 723d
-0.2570796 -0.07489056 -0.07913375 -0.09734463 -0.16594744 0.12252491 -0.16679698 0.040096506
0.14689448 -0.13372442 0.07095536 0.030605296 0.05732205 0.11685102 -0.050408326 0.06014429
-0.050364196 0.12495001 -0.19213161 0.023794694 0.011359335 -0.14482144 -0.12672277 0.054470822
0.15102527 0.10138118 0.021023074 0.021552663 0.12660979 -0.13326794 0.07878033 -0.08085906
0.080890246 -0.041029207 -0.007262538 0.018233366 0.22968128 0.048447374 0.22545098 -0.06662334
0.016155075 -0.17165819 0.13251163 0.10816848 -0.07014476 0.2223175 0.049959555 -0.14477426
0.26329452 0.12368103 0.0666787 0.2949734 0.08703195 0.04772452 0.2033208 0.017484855
-0.086337306 -0.047970522 0.040094588 0.04686931 0.024680253 0.1582984 0.1112572 -0.20437829
-0.09531965 -0.06701505 0.06561819 -0.08942218 -0.09336864 -0.10401549 -0.0923124 -0.089282416
-0.20649073 0.17983972 0.14073639 -0.1003909 -0.09782662 0.047471333 0.07398478 -0.14067855
-0.06588416 0.038856417 -0.09591055 0.039422587 -0.17921528 0.21680684 0.16914786 -0.22559932
-0.07914296 0.12761408 -0.04315923 0.054560546 -0.12734514 -0.14958657 0.1001676 -0.11339834
-0.098179616 0.08958048 0.13161092 -0.048932217 0.073231034 0.14463839 -0.07344223 -0.021825468
0.21219365 0.125031 0.11003817 -0.019662313 -0.16270885 -0.13061994 0.11067684 -0.082302675
-0.010534881 0.06413159 0.15861785 0.20901194 0.07351936 -0.102147765 0.096191786 0.028497184
-0.23770481 0.045891803 0.21056576 -0.22029276 -0.06921893 0.06703046 -0.1556653 -0.116755605
0.22286832 -0.0771744 0.13747697 0.07937219 0.01762762 -0.11518788 0.017082755 0.070734695
0.022816926 -0.08664705 -0.027757064 0.051023934 -0.22624066 0.08409618 -0.16900954 -0.12418548
0.17778118 -0.08684195 0.06396904 0.28609765 0.11301675 0.003118862 0.0867688 0.18651709
0.12722151 0.14581695 -0.14045024 0.075722575 0.05964172 -0.0297621 0.17109507 0.14994486
0.06191226 0.05641397 0.14822687 -0.04203706 -0.19274665 -0.12845762 -0.19937733 -0.20998836
0.104938515 -0.006255879 -0.07255417 -0.07121386 0.23406099 0.19455242 0.14520225 0.1977387
-0.083531804 -0.071488045 -0.105995715 0.035324726 -0.18244117 0.11873808 -0.028717823 0.066502206
-0.17671934 -0.08619045 -0.015181683 -0.12678577 0.14574786 -0.13717712 0.015342722 -0.15877645
-0.04776775 -0.0826633 0.06779347 0.13069887 0.030286351 -0.019914873 -0.05356843 0.14195977
-0.040476985 0.15268345 -0.08887572 0.17259882 0.22108956 0.14601655 0.13315634 0.009748229
-0.16133253 -0.052190896 0.031026466 -0.10315834 -0.008925298 0.09967154 -0.21880488 -0.2068643
-0.10710625 0.060969718 0.02069013 0.08433815 0.027223604 -0.040111113 0.046637893 0.1825305
-0.0431323 0.0036041916 -0.058018945 0.132625 -0.27592063 -0.22848818 0.04688781 -0.31298655
-0.2385743 0.06767308 -0.026583223 -0.23726934 0.13051185 -0.08947409 0.13918112 -0.07947183
-0.26678374 -0.16769513 -0.012158818 -0.23090452 -0.10839817 -0.14855751 -0.10493536 -0.105225645
-0.06055919 -0.26016226 0.012450604 -0.1657652 0.1690364 0.19674149 -0.026052004 0.059111334

layer1.0.bias f4 [16]
00000000: 335c 34bd 3955 0a3e a023 01bd 3985 02be
00000010: 54c2 163e 0607 1bbe 8586 1b3e 07eb 0dbc
00000020: a9e5 24bc ea0e 43be c38c e0bd 24ad f1bd
00000030: 77ba 97be 60d2 6dbc 17b0 17bd 7428 36be
-0.04403324 0.13509072 -0.031528115 -0.12746133 0.14722568 -0.15139398 0.15188034 -0.008661992
-0.010064521 -0.19048658 -0.10964348 -0.11800602 -0.2963445 -0.014515489 -0.037033167 -0.17788869

layer1.1.weight f4 [16]
00000000: 5a74 7c3f b1f2 4f3f b2b7 863f 8d89 763f
00000010: 85c0 973f 4585 4e3f 0195 5b3f 84c6 6f3f
00000020: 973c 913f a920 823f df2a 5e3f 3d6b 503f
00000030: 922c 323f f617 8c3f 4fb1 883f bbad 413f
0.9861504 0.8122969 1.0524809 0.96303636 1.1855627 0.80672103 0.85774237 0.93662286
1.1346616 1.0166217 0.86784166 0.8141363 0.6959926 1.0944812 1.067911 0.75655717

layer1.1.bias f4 [16]
00000000: da3c ba3d b49e d4bd e06c afbd b788 fd3d
00000010: 74e7 3abe 9fde 223d f7ab 48be c422 193e
00000020: 1d70 0fbd 5050 83bd f0a0 803d 1d48 5fbd
00000030: 2872 5cbe 5da7 9fbb 8226 67bb e564 77be
0.09093638 -0.10381833 -0.08565688 0.12379592 -0.18252355 0.03976309 -0.1959685 0.14954668
-0.03501903 -0.06411803 0.062806964 -0.054512132 -0.21527922 -0.004872246 -0.0035270755 -0.24159582

layer1.1.running_mean f4 [16]
00000000: fb51 70be 43fa 443f 5231 65be d8a9 84ba
00000010: 9c1e 3a3e 34ae 9d3e f2a4 c5bc ed61 033d
00000020: 9455 08bf b369 13bf 06d3 0c3f b106 f33d
00000030: 6b88 0a3f 551c 85be 1583 11bd 1bc9 203c
-0.23468773 0.7694437 -0.22382095 -0.0010121418 0.18175739 0.3079697 -0.024126504 0.03207581
-0.5325558 -0.5758316 0.55009496 0.11866511 0.5411441 -0.25998178 -0.0355254 0.009813572

layer1.1.running_var f4 [16]
00000000: f59e 683c 4699 1f3e d86e 9d3c c9bc 653c
00000010: a0ce 023c 92d7 b33d 75f4 343c 51af d53b
00000020: 46ed d93d 538a 2b3d be75 ec3d 2c35 a23c
00000030: c9dc 343e aac8 ae3c 4262 883b e120 513c
0.014198055 0.15585813 0.019217893 0.014022061 0.007983834 0.08781351 0.011044611 0.0065211435
0.106409594 0.041879963 0.11545895 0.019800745 0.17662348 0.021335918 0.004162104 0.012764187

layer2.0.weight f4 [32, 16, 3, 3]
00000000: ada0 98be 2fd8 ebbd 1473 1dbe 6373 2ebe
00000010: 65b2 e1bd a227 33bd 1293 0ebe 1603 5fbe
00000020: 23fb 35be bbde cfbd 6b67 41bd ddd0 c2bb
00000030: dae6 eebc d470 9bbc 5c66 553b 1b29 1bbd
00000040: ad4d 0ebd 04fc 54bd 4880 ed3c 613f 473d
00000050: e8e9 8bbc 4350 a33d 89fb 7cbd 1074 993c
00000060: a7cf 5cbd 25dc cc3c 0e7d af3c 394f 453d
00000070: 456f fe3c 45ee 0a3d 4cce d6bc 7c82 9cbc
00000080: 8c2b 6e3d 17a4 88bc f122 633d 310a de3d
00000090: 0006 f1bd bac4 dbbc fc65 2dbd a220 eabd
000000a0: 71f7 94bd 8f7d 9a3d be3a c2bd 8e2b 50bd
000000b0: 326a 993d 5a30 c1bd 916a edbd 9001 ae3c
000000c0: 1364 62bc cc01 98bb a877 243d 2a6d eabb
000000d0: 7409 2cbd a443 1b3d fd9c abbd 5757 18ba
000000e0: d286 25be be93 04bd f867 8f3c 93a8 93bd
000000f0: 1604 1ebd b531 d4bd 9bec cdbd bb41 62bd
00000100: baaa 243c fa34 983b 75e9 0bbe 1def 16bd
00000110: c07b a3bc 4f07 5cbd 7c0c 0abe 4551 873c
00000120: fd0d 51be a80a 26be ce6d fabd 92a4 bbbd
00000130: 39ce 08be a8cc 2fbe b520 11be 2ab3 05be
00000140: 5098 83be 7858 8fbd ba8d 8abd fe6a 0dbe
00000150: 8007 f0bd 349f d9bd 3fe7 4abd 061a 17be
00000160: 43ce 05be f0c8 25be c2db 34bc cfe7 af3d
00000170: d84f 8f3b 2672 573d e002 883d 2535 67bd
00000180: 92cb 89bd 75b4 d9bc 37a1 ba3d 2729 043e
00000190: 62c7 8e3d 7183 d63b 81a1 413d 94d9 88bc
000001a0: 1a92 5e3d da89 3a3b 8791 f53d 4c5b 043d
000001b0: 2f8b bf3b 8036 5ebc b6d1 8f3d 77eb b4bd
000001c0: a8b5 073d 8c0e aabd d8a6 aebc 1f88 58bd
000001d0: 2a54 883c 5f5e e93b e70b eabd 053b 75bd
000001e0: 98cc 17be 72a8 a6bd ee51 c9bd f1b4 03be
000001f0: d511 10be 9086 8bbd dc86 a3bd b9ce d2bd
00000200: 9edd 89bc d33d 1c3c 1645 cdbd 4eee 6dbd
00000210: cd7d eabd 221e 80bc a6ed bdbd ea4e 94bd
00000220: 7cbe 5a3d fa2c 983d 3dce b63c 2d67 963d
00000230: 9904 a0bd d4b7 60bc 6c6d 353c 351c 933c
00000240: 759f 99bd 37d8 983c 0444 9b3c a258 4dbe
00000250: cb65 ffbd bfe6 4dbd be92 35be 1cce 09be
00000260: d5cd d1bd e845 fbbc ff63 debc c56a 05bd
00000270: 13ff d33c 0abe 6dbd 881f 5ebd 5aa1 043c
00000280: f9f8 6e3d 469b babc 01f4 b13d 9cc9 9a3d
00000290: 86e0 3f3c 4f98 ab3d 5b78 933d e8a6 00bd
000002a0: 30a5 c63d 0420 023e 57d8 c03d ebe5 3cbc
000002b0: fdc0 b9bc 880c 93bd fc56 e8bd 2aad 02be
000002c0: 13d4 c8bd a03d 5fbd 9521 c2bd b971 0ebd
000002d0: cdc0 423d 733c b63c 5138 413c 1a28 dc3d
000002e0: bb1e 04bd ec4c 2e3d 1e1a a93d d657 9d3d
000002f0: c586 35bd 5ee5 a8bc 4820 b4bd 7602 2fbc
00000300: fc80 45bc c386 82bd d8b7 18bd 8021 afbc
00000310: 8a25 3d3c afb6 543d e277 61bd 037f cc3c
00000320: 99c3 c93d 1b28 28bd dd2a 6abd 8c7e 953d
00000330: 09e1 a7bd 714a c6bd f959 fcbc a8e3 12be
00000340: 5795 34be 2b0c 08be 8a7e 45be 5015 0dbe
00000350: d77f 1bbe 265c 8fbd 4dfb 17be a145 dcbd
00000360: 2ccb 1f3d a196 413d 3e1a 7e3d b2f2 623c
00000370: 6191 b33d 5f63 42bd 2481 e63d e09d 813d
00000380: 4747 09bd 029e bebd daaa acbc a35f 953d
00000390: 01d4 3abe 4422 1dbe d2e5 6b3c 98f0 20be
000003a0: 3f27 32be 1b61 37bc f329 07bb 2c6d 3ebc
000003b0: 5887 82bc bde0 913d f672 3fbd 994b af3d
000003c0: 6608 adbb 3e77 4e3c c67e 59bd f2e3 acbc
000003d0: 9267 9abd 4010 363d dd3b 00bd 24a4 b93d
000003e0: 7e91 4e3c c2d3 dcba dd34 81ba abbb c9bc
000003f0: bdfc 39bb a967 1d3d 73a6 53bd fdc8 d43b
-0.29810086 -0.11515843 -0.1537593 -0.17036204 -0.11020354 -0.04373897 -0.1392329 -0.21778521
-0.17771582 -0.10149904 -0.047217768 -0.0059453086 -0.029162813 -0.0189747 0.0032562232 -0.037880998
-0.034742046 -0.051998153 0.028991833 0.048644427 -0.017079309 0.07974293 -0.06176332 0.0187321
-0.05390897 0.025007317 0.021421935 0.048171256 0.031058917 0.033918638 -0.026221417 -0.019105189
0.058147 -0.016679807 0.055453245 0.108417876 -0.117687225 -0.026827205 -0.042333588 -0.114320055
-0.07273758 0.0754348 -0.094838604 -0.050822787 0.07490958 -0.094330505 -0.115925916 0.02124098
-0.013817805 -0.004638886 0.040153176 -0.0071541267 -0.042001203 0.037906304 -0.083795525 -0.00058113545
-0.16164711 -0.03236746 0.01750563 -0.07209887 -0.038578115 -0.10361043 -0.100548945 -0.055238467
0.01005047 0.004644987 -0.13663276 -0.03684913 -0.01995647 -0.053717908 -0.13481325 0.016518245
-0.20415492 -0.16215003 -0.12227975 -0.09162249 -0.13359918 -0.17167914 -0.14172633 -0.13056627
-0.25702143 -0.06999296 -0.067653134 -0.13810346 -0.117201805 -0.10626069 -0.04953694 -0.14756021
-0.13066964 -0.16189933 -0.0110387225 0.08589136 0.004373532 0.052599095 0.06641173 -0.056447167
-0.06728281 -0.026575306 0.091127805 0.12906323 0.06971623 0.0065464308 0.047273163 -0.016705312
0.054338552 0.0028463514 0.11990648 0.03231363 0.0058454494 -0.0135627985 0.07022421 -0.08833974
0.033132225 -0.08303556 -0.021319792 -0.05286419 0.016641695 0.0071218456 -0.114280514 -0.05987074
-0.1482414 -0.08137597 -0.0983008 -0.12861992 -0.14069302 -0.06812775 -0.07984707 -0.102933355
-0.016829308 0.009536224 -0.10022943 -0.058088593 -0.11449776 -0.015639368 -0.092738435 -0.07241614
0.053404316 0.074304536 0.022315139 0.07343898 -0.07813377 -0.013715703 0.0110734515 0.017957786
-0.07501117 0.018657787 0.01895333 -0.20053342 -0.12470587 -0.050268885 -0.17731759 -0.1345753
-0.102443375 -0.030672982 -0.027147291 -0.032572526 0.025878465 -0.058042563 -0.05422929 0.00809511
0.058342908 -0.022779118 0.08689118 0.07557985 0.011711245 0.0837866 0.0720069 -0.031409174
0.09699476 0.12707525 0.094162636 -0.011529426 -0.022675032 -0.071801245 -0.11344716 -0.1276137
-0.09806075 -0.05450213 -0.094790615 -0.034776423 0.04754715 0.022245621 0.011793212 0.10749836
-0.03225587 0.042553827 0.082569346 0.07682769 -0.04431798 -0.020617183 -0.0879522 -0.010681739
-0.012054678 -0.0637336 -0.037284702 -0.021378279 0.011544595 0.051932033 -0.05504597 0.024962908
0.098517604 -0.041053873 -0.057169784 0.072995275 -0.08197219 -0.09682167 -0.030804621 -0.14344656
-0.17635094 -0.13285892 -0.19286552 -0.13777661 -0.15185486 -0.06999998 -0.14841957 -0.10755468
0.03901212 0.04726279 0.062036745 0.013851808 0.08767963 -0.04745805 0.112551 0.063289404
-0.03351524 -0.09307481 -0.021077562 0.07293632 -0.18244936 -0.15345103 0.014398055 -0.15716779
-0.17397784 -0.011192585 -0.002062437 -0.011622708 -0.015933678 0.071229436 -0.046740495 0.08559341
-0.005280542 0.012601672 -0.053099416 -0.021104787 -0.07539286 0.04444909 -0.03130709 0.090645105
0.01260793 -0.0016847777 -0.0009857673 -0.02462562 -0.0028379404 0.038428936 -0.05167241 0.006493686

layer2.0.bias f4 [32]
00000000: e52d a13d 8a61 37bc 9356 523d 196e cfbc
00000010: 3c13 bd3c 91d2 84bd 851b 95bd b027 9d3d
00000020: 671d ec3d 4ca8 9ebc f059 563d 46b7 4cbd
00000030: efca 07be 7d2a 59bd a8f6 6abb 6d97 b8bc
00000040: 4ad7 b23d beb3 5bbd efbd f5bd c32c c7bc
00000050: 965e 933d 793e ec3d d273 1b3d 18f4 db3c
00000060: 7089 c8ba 252d 96bd fe2e 80bd dcb3 69bd
00000070: 5f39 ab3d 270e e2bb eb44 e6bd 48e4 4fbd
0.07870082 -0.011192689 0.051352095 -0.025321053 0.02308046 -0.06485475 -0.072806396 0.076735854
0.115290456 -0.01936736 0.052331865 -0.04997947 -0.13261007 -0.053019036 -0.0035852585 -0.022533143
0.087324694 -0.053638212 -0.119991176 -0.024313336 0.07195775 0.11535353 0.03795225 0.026849791
-0.0015299749 -0.073328294 -0.06258963 -0.057056293 0.08360552 -0.0068986597 -0.11243614 -0.050754815

layer2.1.weight f4 [32]
00000000: e7b7 6e3f eb94 8c3f 1b38 673f 78bb 733f
00000010: b21d 683f c849 853f fe59 783f 40a4 843f
00000020: 75f3 853f 21c2 623f d277 813f e24c 653f
00000030: 5cb8 843f 814b 6b3f 7a66 5b3f 9390 563f
00000040: cd96 873f 563e 803f 0879 853f 2380 733f
00000050: 2d1a 823f eb8f 833f 8d4e 843f 3f3f 633f
00000060: 7aba 743f 3d2f 8c3f 39aa 803f 9ac9 733f
00000070: af25 833f 8190 843f 499e 823f d6e9 683f
0.9324936 1.0982946 0.90319985 0.9520793 0.9067031 1.0413141 0.9701232 1.0362625
1.0464922 0.8857747 1.0114691 0.8957044 1.0368762 0.91912085 0.8570324 0.8381435
1.0592896 1.0019023 1.0427561 0.95117396 1.0164238 1.0278295 1.0336472 0.8876838
0.9559704 1.0951916 1.0051948 0.95229495 1.0245875 1.0356599 1.0204555 0.90981805

layer2.1.bias f4 [32]
00000000: 2e28 abbd ab59 e6bd a50e a2bd 0d55 22bd
00000010: c2cb 34be 0f1d 50be f2bd 84bd ad9d 19be
00000020: 675a 87be f28a 7cbd 8912 503d e5a0 18be
00000030: 19ea febd 13d4 debd 4b7e 57bd efee 60be
00000040: 1e4f 94bd 9636 c0bd ff8f 0abe 3872 71bd
00000050: 0ff3 41be 211e 0abe 9bd5 d4bd 0b7d 4ebe
00000060: 4bb7 8abd 2321 24be 0568 39bc 062a 97bd
00000070: f029 4c3d 5917 2dbe b981 423c 35bd 9ebd
-0.08357273 -0.112475716 -0.079129495 -0.039631892 -0.17655852 -0.20323585 -0.06481542 -0.15001555
-0.2643616 -0.061655946 0.050798927 -0.14905126 -0.12446994 -0.10880294 -0.052610677 -0.21966146
-0.07241653 -0.093854114 -0.13531493 -0.058946818 -0.18940376 -0.13488056 -0.103923045 -0.20164888
-0.067732416 -0.16028266 -0.011316304 -0.07381062 0.049844682 -0.16903438 0.011871749 -0.07750932

layer2.1.running_mean f4 [32]
00000000: b391 56c0 657a d7bf 6bd2 4fbd bf67 33be
00000010: 907b 043f 1ef8 293e 2403 053f cc7f ec3f
00000020: 5756 a5be c770 98be ea6d febe f318 0cbe
00000030: f092 003e 3daa 71c0 6851 85bf b728 0c3d
00000040: d546 07bf 1100 0b40 140f ebbf afcf 0bbe
00000050: 4435 83bf 95a5 80bf ef9d 29c0 cce9 f1bf
00000060: 57fc 823f 8ceb 51bf e4c6 1f3c b6a7 19c0
00000070: e10d b4bf bb06 c3be b069 46c0 588b 3bc0
-3.3526428 -1.6834227 -0.05073778 -0.17520045 0.5175104 0.16598555 0.5195792 1.84765
-0.32292435 -0.29773542 -0.49693233 -0.13681392 0.12556052 -3.7760155 -1.0415468 0.034218516
-0.52842456 2.171879 -1.8363976 -0.13653444 -1.025063 -1.0050532 -2.6502645 -1.8899474
1.0233258 -0.8200004 0.009752009 -2.4008613 -1.4066736 -0.38091072 -3.1002007 -2.9303799

layer2.1.running_var f4 [32]
00000000: d92e f640 1454 eb3f cd91 eb3f 6d53 783f
00000010: 1a79 763f 28f7 3e3f d581 f23f 4e34 2f3f
00000020: c55f 633f 7279 b33f 2c54 bd3f eb92 ba3f
00000030: 1a16 223f 970a ea40 4d8f 6c40 053d 073f
00000040: c589 ab3f 6cb8 b63f e45f a940 f879 0e40
00000050: 863c cf3f e480 dc3f ea07 3240 3dc7 3d40
00000060: 0444 683f 3b8f 953f 24b2 ee3f 5b6c 3d40
00000070: 169d c43f 8026 dc3f 8f74 9b40 51d6 2940
7.6932187 1.8385034 1.840387 0.970023 0.96278536 0.7459588 1.8945872 0.68439186
0.8881801 1.4021437 1.4791312 1.4576086 0.63314974 7.3137927 3.6962464 0.52827483
1.3401419 1.4275031 5.2929554 2.2261944 1.6190345 1.7226834 2.781733 2.9652855
0.90728784 1.1684335 1.8648114 2.9597385 1.5360439 1.7199249 4.8579783 2.6537058

layer3.0.weight f4 [64, 32, 3, 3]
00000000: 7b6f 8d3d 201a 7fbc e86e e63c c306 c53d
00000010: ad61 f6bc 3d38 673d a9d2 683d 1d10 4c3d
00000020: 6c97 993c 248b b53c 6493 563e 32d6 f03d
00000030: 460b 9ebd 47bd 863d 3375 a83c e380 04be
00000040: 0197 34bd f1d5 a0bd 6d0c 87bd 32ae 95bb
00000050: ead4 203c 00d3 513d af4d d93b 8e04 ab3c
00000060: 8f93 0bbd 4bba 4f3d 0a42 bbbd 3f3b bc3c
00000070: 198b 91bd 94ed 07bc 6587 c13d ed91 56ba
00000080: 6dc7 97bc 43a6 093c fa5a f93c 1f98 b23d
00000090: b03d 9cbd 2bd6 20be 5793 d7bd ff3b 8abc
000000a0: 09c2 66bd 54c0 983c 30cf 68bd bf30 b93b
000000b0: ea05 803d 70e9 a03c bb49 31bd d7ed be3b
000000c0: cc4a f53c a3b9 a03c f383 82bc 8edd bc3b
000000d0: dbc9 fd3c b65c afbd 5227 fa3c fc49 28bd
000000e0: 5252 adbd 40f0 be3d 29da 1e3d c877 753d
000000f0: 7d7d 403e 9af2 493e 1fcd f03d f536 99bd
00000100: 67d5 20be 0217 0cbe 0dbe d13d 7996 913d
00000110: 3292 453d 3779 013d 6bc2 953c 2eac 893d
00000120: 1840 8cbc bf19 aabc 5841 d4bd db54 5d3d
00000130: e216 e03d 1f80 ebbc 70df aabc 6fa1 0c3e
00000140: f29c 413c 21c2 543d 132a 74bd 88a1 93bd
00000150: 2502 15bd 5d6d 5cbd c05d 2ebd ea1e 833d
00000160: 028d b53d 5b49 983c e7d4 2d3d 7c17 983d
00000170: d685 493d d519 353b 751e 3abd ae62 a7bb
00000180: bc59 c9bd eaeb cc3c 1369 fabc ace6 503d
00000190: 44f2 09bd 8a1d fb3c 1fba 333d 4363 033c
000001a0: 745b 843d f264 0f3d 4e71 633d 2252 753d
000001b0: b119 3d3d 9a93 703d 0d92 b7bc c5e0 f03c
000001c0: f7c5 b83d f88c e93c 3707 6abd e140 3e3d
000001d0: 21e6 bdbb 6391 473c 8370 573c 1971 2b3b
000001e0: 0d85 3a3c 4167 873b dbe4 323d 3576 74bc
000001f0: a894 1e3d 093d 4b3d ccb6 90bb 47fb bbbc
00000200: 16a9 b23d ca97 a0bd 450b fd3b 2fd8 253c
00000210: 34e9 2fbd 1258 dbbc 00a5 cabc de68 1dbd
00000220: 0cd8 cfbd 95f0 a4bd de3f 603d f3f5 0fbd
00000230: f97c b7bb a976 dc3d 060a 90bb 4c06 c63d
00000240: 8bd9 04ba 5ec2 0b3e 797d f43d 45e7 16bd
00000250: f026 a63d 0f28 3d3d 6f5a 05be 5c55 acbd
00000260: d06d a8bd d9f5 1ebd be37 bdbc 4fc0 b5bc
00000270: 5804 d23d 6a4c bb3d 256e 2a3b 1926 0e3c
00000280: 373b 0b3d 52d5 823c e092 d9bc 1185 76bd
00000290: 0494 243d 97c8 b33b 6020 863d 28b4 bf3d
000002a0: 8e37 163d acd7 4a3d 3963 953d 4e8b d5bc
000002b0: 5709 7dbd 9306 f7bd 61da 96bc ea2e 8dbd
000002c0: 717a 3dbd 4217 243d 5d29 443d b5e0 243d
000002d0: fb06 0b3d 9600 47bc ab17 ab3c 59f3 4e3d
000002e0: dc11 b53d a918 cd3d 70c6 3f3c 7f72 053d
000002f0: 5f03 b33c 6d67 f5bc 5bea 823b 9c77 be3c
00000300: be62 0a3e 8e39 a73d aa52 033e 4067 a93d
00000310: ed4f 763d 449e 903d 58db fc3b ba8c 303e
00000320: 7b50 ee3d 920a b5bd 6f0a c83d 3665 073e
00000330: 44a5 15be e6d5 cebd f50a 103c 7a4a 433d
00000340: 5ef3 083e 5446 2e3d dd87 833c 300d 623d
00000350: 3094 103e db83 95bd 80d3 db3b ba05 8fbc
00000360: 9a35 69bc b38e ccbd 5773 99bd 016f 813d
00000370: b280 7dbc abb6 14bd 6efc 073d b29a 583d
00000380: d6db 003d 3a8b af3d 0923 4b3e 08bb 8d3d
00000390: 6b92 2fbd f9de 313e 1eba 263e d575 94bd
000003a0: b0e2 90bc e2cb ce3c 3aa9 473c 0450 4ebd
000003b0: 4c16 f1bc e1d7 cb3d 1d9c f63c a2c5 f4bc
000003c0: a82c 0a3e 973f 8c3d 157a d73d 04fe 163d
000003d0: 624d 87bd 5a98 ce3b 90a1 b43d ee87 04bd
000003e0: 845c 4f3d f776 dd3d 19a3 213d 9ba9 a43d
000003f0: 94aa 6bbd 618d bdbd 087e acbd 9b7f bcba
0.06906029 -0.0155701935 0.028129056 0.0962043 -0.030075872 0.056450117 0.056841526 0.049820054
0.018748961 0.022161074 0.20954663 0.117596045 -0.07716994 0.065790705 0.020563697 -0.12939791
-0.04408932 -0.07853306 -0.06594167 -0.004567885 0.009816388 0.051226616 0.006631575 0.020876195
-0.03407627 0.050714772 -0.09143455 0.02297747 -0.07106609 -0.008296389 0.094496526 -0.0008185197
-0.01852771 0.008401456 0.030438889 0.08720421 -0.076289535 -0.15706699 -0.1052615 -0.016874311
-0.05633739 0.018646397 -0.056838214 0.005651563 0.06251128 0.019642562 -0.043283205 0.0058266926
0.029942892 0.019619768 -0.015932059 0.005763716 0.030980041 -0.08562605 0.030536328 -0.041086182
-0.08462967 0.09323168 0.038782272 0.059928685 0.1879787 0.19721451 0.11757874 -0.07481185
-0.15706407 -0.13680652 0.102413274 0.071087785 0.048235126 0.03160974 0.018281182 0.06722294
-0.017120406 -0.02076423 -0.10364026 0.054036003 0.109418646 -0.028747616 -0.020858496 0.13733457
0.011817204 0.05194295 -0.059610438 -0.07208544 -0.036379 -0.053815234 -0.042569876 0.06402381
0.08864786 0.018589666 0.042439368 0.07426354 0.0491999 0.0027633805 -0.045439202 -0.005108199
-0.098315686 0.025014836 -0.030567681 0.051001236 -0.033678308 0.030653734 0.04387867 0.008019271
0.06462756 0.03500838 0.055527978 0.05989278 0.04616708 0.058734514 -0.02240851 0.029404053
0.09022134 0.028509602 -0.057135787 0.046448592 -0.005795256 0.012180659 0.0131493835 0.002615994
0.011384261 0.004132182 0.043675285 -0.014920761 0.03871599 0.049618755 -0.0044163223 -0.022946967
0.08723657 -0.078414515 0.0077222907 0.010122343 -0.04294701 -0.026775394 -0.024736881 -0.038430087
-0.101486295 -0.080537 0.05474841 -0.035146665 -0.0055996147 0.1076482 -0.004395726 0.0966917
-0.0005067817 0.13648364 0.119379945 -0.03684165 0.081128955 0.04618078 -0.13022779 -0.084147185
-0.0822407 -0.038808677 -0.023097869 -0.022186426 0.10254735 0.09145434 0.0026005593 0.008676075
0.03399202 0.01597086 -0.026559293 -0.060185496 0.04018022 0.0054865587 0.06549144 0.09360534
0.036674075 0.049522087 0.07294316 -0.026067402 -0.061776485 -0.12061801 -0.018414678 -0.06893714
-0.046259347 0.040061243 0.04789101 0.04025336 0.033942204 -0.012146136 0.02088531 0.050525043
0.08841297 0.10014469 0.011705026 0.032579895 0.021852193 -0.029956544 0.0039952225 0.023250394
0.1351423 0.081652746 0.12824503 0.082716465 0.060134817 0.07061437 0.0077165775 0.17241183
0.11636444 -0.08839907 0.09767615 0.13222203 -0.14613825 -0.10099392 0.008791675 0.04767845
0.13374087 0.04254754 0.016055996 0.055188358 0.14119029 -0.0730054 0.0067085624 -0.017458785
-0.014233971 -0.09988155 -0.074927025 0.063200004 -0.015472578 -0.03630702 0.03319972 0.052881904
0.031459652 0.08571477 0.19837584 0.06920439 -0.042864244 0.17370214 0.16281936 -0.07249037
-0.017686218 0.025243703 0.012186343 -0.050369278 -0.029429577 0.09953285 0.030103737 -0.029879395
0.13493598 0.06848066 0.10521332 0.036863342 -0.066065565 0.006304783 0.08819878 -0.032356195
0.05062534 0.10813706 0.039462183 0.08040162 -0.057535723 -0.092554815 -0.08422476 -0.0014381291

layer3.0.bias f4 [64]
00000000: 49d6 573b 0dd5 0e3c d303 d73b a27a b93c
00000010: 7c19 0dbb 6784 1ebc fac2 703d 5cfd 3d3d
00000020: 4f42 cd3c 194e 6bbd fc60 953c e7a5 2ebd
00000030: 1980 873c 4a33 553d 7b5e 5bbb 7dc1 24bd
00000040: 42dc 283d a7c5 f9bc 6f28 41bd 2be1 87bd
00000050: 1991 6fbd 148d 6d3d 1d80 583d be1f 5f3d
00000060: 2650 f1bc 8c41 3d3d e05f 1cbd e12f cc3c
00000070: cc53 23bd 120b 55bd d423 5a3c 4a39 003d
00000080: d0f9 b9bb 8962 2ebd 3e0a 63bd 4670 ec3c
00000090: 2441 623d a94f 33bb c26f 04bc ca88 573d
000000a0: d5e3 a83c 5c1a 8f3d b7bd d9bc 1da5 39bc
000000b0: bfc6 ab3c cdd8 62bd dc4d 08bd 0947 193d
000000c0: 440f 4b3d 7296 20ba 97c5 4fbd 47c4 ee3c
000000d0: d82f 223d ee3a 39bb 4130 663c 29cd 3dbc
000000e0: 284c 9fbb 07fa 3cbd 0dc2 113d f946 3bbd
000000f0: 097d 3abd 6fdf 763d fdcb 273d a460 943c
0.003293412 0.008717787 0.006561735 0.022641484 -0.0021530082 -0.009675122 0.058779694 0.0463842
0.025056032 -0.057447527 0.018234722 -0.042638686 0.016540574 0.052050866 -0.0033473063 -0.040223587
0.04122568 -0.030489756 -0.0471577 -0.06634744 -0.058487985 0.05799587 0.052856553 0.05447363
-0.029457163 0.04620509 -0.03817737 0.024925174 -0.039874837 -0.05201251 0.013314206 0.031304635
-0.005675532 -0.04257444 -0.05542969 0.02886213 0.055237904 -0.0027360714 -0.008083286 0.052620687
0.020616451 0.069874495 -0.02657972 -0.01133087 0.020968793 -0.05538254 -0.033277377 0.03742126
0.049575105 -0.0006125934 -0.050725546 0.029146327 0.03959641 -0.0028263885 0.014049591 -0.0115845585
-0.0048613735 -0.046136882 0.035585452 -0.04572198 -0.0455294 0.060271677 0.040966023 0.018112488

layer3.1.weight f4 [64]
00000000: d214 833f a5b4 813f 069b 883f bcac 6f3f
00000010: faad 753f 7faf 813f 2dda 783f f4c1 873f
00000020: 8c7f 683f 0410 753f 162c 843f 942d 813f
00000030: ff89 813f 17c4 703f b36f 7d3f 82f1 833f
00000040: 2022 853f 3551 503f c3c4 753f d665 833f
00000050: b765 6d3f 791d 8a3f ca04 833f 67e1 783f
00000060: 28df 763f e8cb 3d3f 4143 8d3f ce31 883f
00000070: 3d3b 7e3f 24a2 803f 8538 853f 5be1 7e3f
00000080: e8ba 863f a802 793f b84b 803f 0bb6 823f
00000090: 7c01 763f d215 803f a0d9 7c3f c863 7e3f
000000a0: 5e42 733f 287d 853f 74d8 743f 716a 6e3f
000000b0: f6f4 7f3f 4218 843f 82b6 7c3f 98ec 813f
000000c0: f718 803f 69e4 823f 51d4 7b3f 9cec 803f
000000d0: 233f 7a3f 868f 5f3f 3d1c 713f 3491 653f
000000e0: 0bc3 813f dfa4 8a3f 7128 693f fd39 833f
000000f0: 2056 773f c234 773f fb2b 773f 34cd 823f
1.0240729 1.0133253 1.0672309 0.93622947 0.9596859 1.0131682 0.9720791 1.0606065
0.9081962 0.9572756 1.0325954 1.0092034 1.0120238 0.9404921 0.98998564 1.0308077
1.0401039 0.8137391 0.9600336 1.0265453 0.9273333 1.0790244 1.0235837 0.97218937
0.9643426 0.7413926 1.1036149 1.0640199 0.9930914 1.0049481 1.0407873 0.99562615
1.0525789 0.9726968 1.0023108 1.0211805 0.96096015 1.0006659 0.9876957 0.99371004
0.95023143 1.042882 0.9564278 0.93131167 0.99983156 1.0319903 0.98715985 1.0150328
1.0007619 1.0225955 0.98370844 1.0072207 0.9775259 0.87328374 0.94183713 0.8967469
1.0137647 1.0831565 0.91077334 1.0252072 0.9661579 0.9656488 0.96551484 1.0218873

layer3.1.bias f4 [64]
00000000: d4cf 07be 90f3 d8bd 5401 a3bd 652e 62be
00000010: c267 5fbe 6d35 01be 5e10 9bbd be77 d0bc
00000020: 4412 c5bd 9b13 70bd 7de8 6cbd f17e 23be
00000030: c59b dcbd f96c e3bd 66c5 c9bd 55cc fabd
00000040: ee36 abbd dc27 66be b36d e2bd 4bff babd
00000050: e878 1ebe 7e04 50bd 16a0 cebd 0e3a 40bb
00000060: 74e6 9bbd e42b 99be 6803 70bd 52ad e6bd
00000070: 2348 01bd b09c 44bd 018a 04be a96b c6bc
00000080: 9f8a afbd 9630 21be fe30 1cbe 23aa b7bd
00000090: cb14 86be 658b bcbd c1d6 a3bc 3dc5 18be
000000a0: 73f1 dabd cbea 06be 178d f9bd ab24 35be
000000b0: 4176 17be 97ea 03be 76a9 e5bd 4fc8 54bd
000000c0: 870f e8bd 7e9f 42be 8d6d 8fbd ae18 24be
000000d0: 9567 05be 56f7 7ebe 3ca1 25be 158f 10be
000000e0: 5412 57bd 72e1 c3bd d3d8 16be d52a c1bd
000000f0: 4710 7bbd f90e 0dbe e70a e3bd 8b63 81bd
-0.13262874 -0.10593331 -0.07959238 -0.2208801 -0.21816924 -0.12618037 -0.07571481 -0.025447723
-0.096226245 -0.058612447 -0.057838906 -0.15966393 -0.10771898 -0.11104769 -0.09852104 -0.122460045
-0.083600864 -0.22476143 -0.1105608 -0.091307245 -0.1547581 -0.050785534 -0.10089128 -0.0029331478
-0.07612315 -0.29916298 -0.058597 -0.11263527 -0.031562936 -0.04800099 -0.1294327 -0.024221258
-0.08571362 -0.1574119 -0.15253064 -0.08967998 -0.2618774 -0.09206275 -0.019999864 -0.1491899
-0.10690584 -0.13175504 -0.12185114 -0.17689769 -0.14791204 -0.12882458 -0.11213963 -0.05194884
-0.113310866 -0.19006154 -0.07003317 -0.1602504 -0.13027795 -0.24899039 -0.16174787 -0.14117081
-0.052507713 -0.09564485 -0.1473115 -0.09431998 -0.06129482 -0.13775243 -0.11086064 -0.063178144

layer3.1.running_mean f4 [64]
00000000: 0fb3 1640 7b9b 1bbf e99f 2fc0 344f 723f
00000010: 8067 b23d 53e0 4940 cc0b 65c0 f60a 27c0
00000020: c55f a73f bad9 1cc0 7ef9 383f 4090 14c0
00000030: 213f 993f 3b64 3a40 5f28 17bf 1925 5dbf
00000040: df69 233f 02f9 2a40 4e70 d33f c43a a03f
00000050: 2b04 d1be 21f9 8e3e 9b23 1940 21a8 a33f
00000060: d8fd 1dbf da29 49bf 4ef8 433f f271 23c0
00000070: d288 52c0 c05d d6bf 33a7 04c0 b63c 4940
00000080: 9c54 3ac0 78b3 a23f dec8 1a3f a182 da3e
00000090: 3920 27bf 0c26 823f 037e 8d3f b78b 1640
000000a0: 1e03 2b3e 4b4c 1440 8d01 b2bf 8bbb 31bf
000000b0: 57fe ac3f 773a 0fc0 2f06 c8bd a74e 88be
000000c0: 7751 a73e 0918 233f daed 2b3f 0759 1040
000000d0: 141e e53e 2c48 a43f de37 543d e013 7b3f
000000e0: 2924 e1bf 9c76 d1bf 3b91 903f 1e70 1f40
000000f0: 3a4f 5ac0 6591 0a40 bc18 afbf 706c 2940
2.3546789 -0.6078412 -2.7441351 0.94652104 0.08711147 3.1543167 -3.578845 -2.610044
1.3076102 -2.450789 0.72255695 -2.3213043 1.197239 2.9123676 -0.59045976 -0.8638473
0.6383342 2.6714482 1.6518648 1.2517934 -0.40823492 0.27924445 2.3927982 1.2785684
-0.6171546 -0.78579485 0.7655076 -2.5538297 -3.2896008 -1.674736 -2.072705 3.1443305
-2.9114141 1.271102 0.6046275 0.42677787 -0.6528354 1.0167861 1.1054081 2.3522775
0.16700408 2.3171566 -1.3906723 -0.6942679 1.3515118 -2.2379434 -0.097668044 -0.26622507
0.3267934 0.6370855 0.6715981 2.2554338 0.4474951 1.2834525 0.05181109 0.980772
-1.758916 -1.6364322 1.1294321 2.491218 -3.4110856 2.1651242 -1.3679423 2.6472435

layer3.1.running_var f4 [64]
00000000: 4fa1 4440 a529 6640 1d60 5d40 42e4 9140
00000010: 3b38 b440 5a91 8e40 a148 dd40 394a 0041
00000020: cee1 d240 ecf5 4441 bd3f 4b40 5a0c a340
00000030: 783d 6540 09d1 ce40 ac15 e840 35ca 6540
00000040: 91fb 2240 00cb 5e40 732d f640 5d6f 9840
00000050: ea9b 9340 1763 ee3f e209 7440 d0dd 4f41
00000060: 355e b740 a8fb c640 295d 1040 8375 c240
00000070: c017 2941 58b5 0c41 fd95 4f40 5610 3c41
00000080: 96e4 7840 be95 7040 c950 6d40 e462 8840
00000090: 89a2 8d40 769e 5c40 95f5 8041 8c43 0a40
000000a0: cc23 3041 f1b1 9f40 b633 d140 684c 9d40
000000b0: 98f7 2840 2504 1441 de29 e340 007b 5740
000000c0: ca9c 7440 5c14 1c40 5304 0f41 cfea 3f40
000000d0: d71d 2e40 3494 4d40 3a78 a940 1115 db40
000000e0: 7588 cf40 d8f1 0240 4fc9 5740 3b6a 1941
000000f0: 458c 2a41 8f68 0341 98d1 9c40 516d 4c41
3.0723455 3.5962918 3.4589913 4.5591135 5.631864 4.455243 6.915116 8.018121
6.590064 12.3100395 3.1757653 5.0952578 3.5818768 6.463017 7.2526455 3.5904667
2.5466044 3.4811401 7.693048 4.763594 4.6127825 1.862399 3.8131032 12.991653
5.73025 6.2182198 2.255686 6.0768447 10.568298 8.794273 3.2435296 11.753988
3.8889518 3.7591395 3.7080557 4.2620716 4.4260907 3.4471717 16.119913 2.1603727
11.008739 4.9904714 6.5375624 4.915577 2.640112 9.251012 7.0988607 3.3668823
3.8220696 2.4387426 8.938556 2.9987066 2.7205713 3.2121706 5.295926 6.8463216
6.4854074 2.046011 3.371662 9.588435 10.6592455 8.213027 4.900585 12.776689

fc1.weight f4 [10, 576]
00000000: e4b7 923b 0f58 79bb a516 943c 796d 933d
00000010: 27fa 533d cac7 c83d 049e d03d 56c0 b73d
00000020: 8cce 113d 235c 363d fa60 433d 7646 98bc
00000030: 6d68 b13c be0b 953d 3572 0d3d da39 7d3d
00000040: 8bdf 203d eb1e 6e3d 5ff3 53bc de3c b2bc
00000050: aac1 bc3c d479 15bd 587a 3bbc 65f9 23bd
00000060: 84dc e4bc 34dd 66bd 293c 6cbd e72f 11bd
00000070: 00e9 a03d fd8d dc3d 14d1 91bd 460a 393d
00000080: 1868 6f3d 742e c6bd 33af ffbc decd 0cbd
00000090: cbcc e73d b0c2 9dbb d5a2 b4bd 853b 9c3c
000000a0: 1572 21bd 1b36 c0bc b643 723d 7593 4e3d
000000b0: 1ef2 ff3c bf4e 7ebd a246 1fbd 329d 0fbd
000000c0: f55e b4bb d730 e23d cc27 d13d 1488 763d
000000d0: ebd9 5e3d 9b07 323d 7442 9e3d 3878 7abc
000000e0: ea84 043e d233 293d 80a1 a4bd ddb3 613b
000000f0: dec3 38bc 2989 4c3d 55fe 1a3d 73c4 0ebe
00000100: a9c5 33bd 57fd 77bd 0d25 8abd 372d e5bb
00000110: 65c1 25bd fa60 fabd e5ac 0b3c e5aa aebd
00000120: c209 86bc 7305 7c3b a649 92bc 5334 093d
00000130: e599 ffba b74b a5bb 704a 3a3d 83c0 2dbc
00000140: 1f8f d6bb 235e f33d ce12 a9ba 189f 803d
00000150: 8829 34bb a034 02bd 2ff0 433d 8af3 553d
00000160: d301 613d cf1b 9b3b b4ac 53bd b0b8 cabc
00000170: da10 b9bc 4d69 4cbc ddcf c03c bac6 91bc
00000180: d9fa 24bd 6445 cb3c a2bf 95bb ae76 8cbc
00000190: afe6 4bbc d9dc 073d b2f8 9fbc 9600 a6bd
000001a0: 137b 1cbd 930b 16bd 411d 80bc e45d a0bd
000001b0: bb23 053e 055c 893d 6f39 38bd 7653 043e
000001c0: 46cd 803d b379 1c3d 9554 d13d 8bb4 5f3d
000001d0: ce9b 4dbc d64a b0bc dddb b9bd 1116 e5bd
000001e0: 198f babd 1fbe 93bd 5d20 f2bd f6fb c3bb
000001f0: 9f0d 7fbd 93b7 10bc 5f14 333d 391b 823c
00000200: e779 133d 8690 823b 6d36 a83d 78f4 97bc
00000210: 95df 04bc 3e96 52bc c1b4 103d 8d84 bbbc
00000220: cf80 28bc 943a 593b 7cdd ae3d 6308 b33d
00000230: 420c 9e3d c54e 9c3d 30e0 e13d 4fcb 753d
00000240: 9b26 b13c 8ff4 953d 6521 ac3d ab12 853d
00000250: c0b1 813d af9f 523d 6fe3 ce3b 3989 9b3c
00000260: b5c7 f63c a089 a1bc b47b c0bc 3dc4 3dbc
00000270: 8e6b aa3d 09fa 853d d51a a13c 98bc a63c
00000280: 2633 d13c 58a1 c73c 2772 e0bc 33ff e23c
00000290: d4d6 1d3d 2995 873d 6add 0d3d e009 543d
000002a0: feb1 593d 048e 053d 1e4c 753d 2a02 1d3c
000002b0: 82b8 19bd 2505 1bbd a54d bd3d 7ecb 383d
000002c0: 61ae 823d 245f 41bb fc4d fb3c 93cc ba3c
000002d0: b6a3 f73c 0a50 a83c ad36 133d e835 7d3d
000002e0: 3435 b23c ef5c 413d 28c6 9d3d a498 9c3d
000002f0: 95b5 0c3d 525c f3bd b568 b4bd 01a0 9ebd
00000300: 3e8a 3ebd 7fd4 98bc ee3f 53bd 92ab 02be
00000310: 5524 d8bd 2814 4dbd 31f4 03bd f0c3 673d
00000320: e1fa 883d bdcf cb3d efab 823d d344 273d
00000330: f639 123d aa2f ac3d b48e 633d e9c4 a9bd
00000340: 9ce5 a9bd 43a5 71bd 3f8f a4bd 9569 eabd
00000350: 2354 e7bd 7f01 1cbd 280e 8abd f2a9 c6bd
00000360: 7e7d 193d 1f4b 943d 9cfc e93d bf1f 1a3c
00000370: 75aa 6dbd 577d 953d 53ee 07bd 2a89 2bbc
00000380: 2d33 383c 4c66 d63d 9f09 403d 5137 143d
00000390: 68c4 243d 9406 b43c 8fee 6c3c 83ed 363d
000003a0: 1299 a3bc c5b3 02bc 222e 1bbe 8617 74bd
000003b0: d941 f6bd 0882 04bd dd9b bb3b d8ac c1bd
000003c0: a281 aebd 09cb 72bd 4bcc b6bd cb9e 83bd
000003d0: 19be 9ebd a13e 0dbd 4afa 63bd 6399 69bd
000003e0: 63c4 4dbd 7b52 bcbc c6aa 86bd 1f9a 93bc
000003f0: 5855 d83d ceec 6f3d 8c93 de3d fbd6 39bc
0.004477488 -0.0038046872 0.018077204 0.071986146 0.051752236 0.09803732 0.10186389 0.08972232
0.03559737 0.044521462 0.047699906 -0.018588286 0.02165624 0.0727763 0.034532744 0.06182275
0.039275687 0.058134954 -0.012936442 -0.02175754 0.023041565 -0.036493137 -0.011442743 -0.040032763
-0.027937181 -0.0563633 -0.05767456 -0.035446074 0.07856941 0.107692696 -0.071199566 0.045175813
0.05844888 -0.09676829 -0.031211471 -0.034376018 0.11318358 -0.0048144683 -0.0882012 0.01907135
-0.039415438 -0.0234633 0.059146605 0.050433595 0.03124338 -0.062086817 -0.03888572 -0.035062023
-0.005504484 0.11044472 0.10212669 0.060188368 0.05440704 0.043464284 0.07727519 -0.015287451
0.12941328 0.041309185 -0.08038616 0.0034439482 -0.011277167 0.049935494 0.037840206 -0.13942127
-0.043889675 -0.060544338 -0.06745348 -0.0069939154 -0.04046764 -0.12225528 0.008525108 -0.08528689
-0.016362075 0.0038455396 -0.017857384 0.033497166 -0.001950082 -0.0050444263 0.045481145 -0.01060498
-0.006547823 0.118831895 -0.0012899281 0.06280345 -0.0027490575 -0.03178847 0.04783648 0.05223421
0.05493338 0.0047335397 -0.051678374 -0.024746269 -0.022591043 -0.012476278 0.023536617 -0.017794956
-0.04027829 0.024813361 -0.0045699636 -0.017146435 -0.012445136 0.0331696 -0.019527767 -0.081055805
-0.03820331 -0.03663213 -0.01563895 -0.07830408 0.13001911 0.067070045 -0.044976648 0.12922463
0.06289153 0.038202 0.10221211 0.05461554 -0.012549354 -0.02152006 -0.09075139 -0.111858495
-0.09109325 -0.07213997 -0.11822579 -0.005980964 -0.06226885 -0.00883283 0.0437206 0.015882121
0.036004927 0.0039845137 0.08213506 -0.018549189 -0.008109947 -0.012853203 0.03532863 -0.022890354
-0.010284617 0.0033146488 0.085383385 0.08741834 0.07717182 0.076322116 0.110290885 0.060008343
0.021624854 0.073220365 0.08404807 0.06497701 0.06332731 0.051421817 0.0063137333 0.018986331
0.030124525 -0.019718945 -0.023496486 -0.011582431 0.08321296 0.06541831 0.019666115 0.0203536
0.025537085 0.024368927 -0.027398182 0.02770958 0.038534954 0.06620247 0.034634985 0.05176723
0.053148262 0.03260614 0.059887044 0.0095830355 -0.037529476 -0.037846703 0.09243325 0.04511594
0.063809164 -0.002950617 0.030676834 0.022802627 0.03022943 0.020545978 0.035940815 0.061818987
0.021753885 0.04720777 0.07703811 0.076463014 0.034352858 -0.11882843 -0.08809034 -0.07745362
-0.046518557 -0.018656014 -0.05157464 -0.12760761 -0.10553805 -0.05006805 -0.0322153 0.056583345
0.06688476 0.09951732 0.0638045 0.04083712 0.035699807 0.08407529 0.055556014 -0.08289511
-0.08295748 -0.058995496 -0.080351345 -0.114459194 -0.11295345 -0.038087364 -0.06740981 -0.09700383
0.037473194 0.07240891 0.114251345 0.009406983 -0.05802389 0.07299297 -0.033186268 -0.010469714
0.01124267 0.1046873 0.046884175 0.036185566 0.04022637 0.021975793 0.014461174 0.044660103
-0.01997045 -0.007977431 -0.15154317 -0.059592746 -0.12024278 -0.03235057 0.0057253675 -0.094567955
-0.08520819 -0.05927566 -0.089256845 -0.06426772 -0.07751102 -0.034483556 -0.055658616 -0.057031047
-0.050236117 -0.022988549 -0.06575541 -0.018017827 0.10563153 0.058575444 0.10867986 -0.011342759

fc1.bias f4 [10]
00000000: 739b b5bd 83f7 84bd cfc8 e33d e8af acbc
00000010: 9fa8 38bd b9d7 823d be2e 6ebd 339f 69ba
00000020: 0520 f6bc 3b14 b53d
-0.0886754 -0.064925216 0.111222856 -0.021079972 -0.045082685 0.06388802 -0.058150046 -0.0008911967
-0.030044565 0.08841749

fc2.weight f4 [2, 10]
00000000: e88a 853e c9b6 2b3e 2a03 ebbe b0e4 0f3e
00000010: 625d eb3d 0e05 cbbe e2d0 313e 42d9 0f3e
00000020: 3f70 ac3e 68aa 92be 97bf 48be 2a1c 8cbe
00000030: 60f5 1aba 574e 903d 4484 c3be cd22 d93d
00000040: f4b1 07be 814c a9bd ec2f 5b3c 1c6c 303c
0.2608254 0.16768946 -0.4590085 0.14052081 0.11492421 -0.39652294 0.17364839 0.14047721
0.33679387 -0.28645635 -0.19604336 -0.27365237 -0.00059111975 0.07046192 -0.38186848 0.10602341
-0.13251477 -0.08266545 0.013378125 0.010767963

fc2.bias f4 [2]
00000000: bd18 7ebe c83c 48be
-0.24814124 -0.19554436
